data.pth (torch, 5546 bytes, 6 tensors)

l1.weight f4 [8, 56]
0	0x3efb8d0a	0.49131042
1	0x3eee3a85	0.46529022
2	0xbead1fc3	-0.33813295
3	0x3f2b8d14	0.67012143
4	0x3ec282ac	0.3799032
5	0x3ea532c7	0.32265303
6	0x3ee5e016	0.44897527
7	0x3ef46e8f	0.477406
8	0x3f81d758	1.0143843
9	0x3ed68855	0.41900888
10	0x3ecf5a09	0.4049838
11	0x3f015584	0.5052111
12	0x3f1fe56a	0.62459433
13	0x3e4b3cfa	0.1984748
14	0xbda66e21	-0.08126474
15	0xbbd9aba9	-0.006642778
16	0x3ea5a148	0.3234961
17	0x3ea925f0	0.33036757
18	0xbe653d27	-0.22386609
19	0x3f73441e	0.95025814
20	0x3f19cdbf	0.6007957
21	0xbecc1278	-0.3985784
22	0x3ec85c5d	0.39132968
23	0xbeb4fc90	-0.3534894
24	0xbea3b6f4	-0.3197552
25	0xbe80ae83	-0.25133142
26	0x3d6cdd2a	0.057828106
27	0x3ed6067b	0.4180182
28	0x3e0ddd91	0.13854052
29	0x3f052e4d	0.52023774
30	0xbc9dcb16	-0.019261878
31	0x3f021ee1	0.5082837
32	0x3ec90314	0.3926016
33	0xbe567562	-0.20943215
34	0x3ecd6a69	0.40120247
35	0xbea80c9d	-0.32822123
36	0xbf148fdf	-0.5803203
37	0x3f28936a	0.65849936
38	0x3e24a9d9	0.16080417
39	0x3f2fcd40	0.6867256
40	0x3f239917	0.6390547
41	0x3efe3649	0.4965079
42	0xbe73ed93	-0.23821096
43	0xbbf31f11	-0.007419475
44	0x3efc21b9	0.49244478
45	0x3eeffb60	0.4687147
46	0x3f552c15	0.8327039
47	0x3f246c3d	0.6422766
48	0x3f19b91d	0.60048085
49	0xbea1b25e	-0.31581396
50	0xbeb02aa1	-0.34407523
51	0xbee83d9b	-0.453595
52	0xbe363b36	-0.17796025
53	0xbe9f300b	-0.3109134
54	0x3eb352b9	0.3502405
55	0xbd4b261b	-0.049596887
56	0xbd74183c	-0.059593424
57	0xbe3bd884	-0.18344313
58	0x3f58f15e	0.847433
59	0xbeb9457d	-0.36185828
60	0x3ec2b6bc	0.3803004
61	0x3eda4dcf	0.42637488
62	0x3f236dde	0.6383952
63	0x3e910a77	0.28328297
64	0xbef522c9	-0.478781
65	0x3e9b2bf7	0.3030698
66	0xbd1fcb02	-0.039011963
67	0xbe3f5652	-0.18685272
68	0xbea021d0	-0.31275797
69	0x3ee8423f	0.45363042
70	0xbe25f678	-0.16207302
71	0xbe1099ab	-0.1412112
72	0x3ef709ac	0.48249567
73	0x3ed7e8bc	0.4216975
74	0xbe832e0d	-0.2562107
75	0xbef52c39	-0.47885302
76	0xbe1e2360	-0.15443182
77	0xbedcb815	-0.43109193
78	0x3ec3e9fb	0.3826445
79	0xbea705d6	-0.3262164
80	0xbe959dbc	-0.29221904
81	0x3f302cfd	0.68818647
82	0x3d45cbaa	0.048289932
83	0x3deeb2a6	0.11655168
84	0x3e71d257	0.23615395
85	0xbed52619	-0.4163063
86	0xbe97c46f	-0.29642054
87	0xbe68cca3	-0.22734313
88	0x3edb3118	0.42810893
89	0xbe1b2897	-0.15152203
90	0xbee27b54	-0.44234717
91	0x3f0efb50	0.5585222
92	0x3f5e0caa	0.86738074
93	0x3ebb7b6b	0.36617598
94	0x3ef99e51	0.48753598
95	0xbed81b9f	-0.42208573
96	0x3ee13f19	0.43993452
97	0xbeb8f005	-0.3612062
98	0x3f48dd1f	0.78462404
99	0xbe1fc9ea	-0.15604368
100	0xbe18615e	-0.14880893
101	0xbde969d3	-0.113971375
102	0x3c87a258	0.016556904
103	0xbe4dfce2	-0.20115998
104	0x3eedc605	0.4644014
105	0x3f049551	0.5179034
106	0x3f022c1f	0.50848573
107	0x3efb274e	0.49053425
108	0xbed132cf	-0.40859076
109	0x3edf3540	0.43595314
110	0x3efda183	0.49537286
111	0x3e9cffee	0.3066401
112	0x3eadb98a	0.33930618
113	0xbe11782a	-0.14205995
114	0x3f136c9c	0.575876
115	0xbdf72293	-0.120671414
116	0x3e7d78d3	0.24753122
117	0xbeb0f983	-0.34565362
118	0xbe4af4a7	-0.1981989
119	0xbde77195	-0.11300961
120	0x3f09724c	0.5369003
121	0x3e9de30a	0.3083728
122	0xbd651f3f	-0.055938
123	0xbc35dc72	-0.011099922
124	0xbe95ae62	-0.29234606
125	0xbb06c3fc	-0.0020563593
126	0xbdd1f125	-0.10251073
127	0x3f19d7a5	0.6009467
128	0xbe5ddffe	-0.21667477
129	0xbe4214af	-0.18953203
130	0xbd872ccb	-0.066003405
131	0x3f07afea	0.530028
132	0xbe983b39	-0.29732683
133	0xbe4b67b5	-0.1986378
134	0xbdfb0637	-0.12257045
135	0xbe886c68	-0.26645207
136	0xbe5b8063	-0.21435694
137	0x3eb250e7	0.3482735
138	0x3eeec63c	0.46635616
139	0x3eb87568	0.36027074
140	0x3ebb073b	0.36528954
141	0x3eb0d869	0.34540108
142	0x3ef59bd4	0.4797045
143	0xbe096202	-0.13416293
144	0xbe2f1bd4	-0.1710046
145	0xbdfebbcf	-0.124381654
146	0xbea07085	-0.31335846
147	0x3ec2be3c	0.38035762
148	0x3f15a12f	0.5844907
149	0xbcd3a797	-0.025836749
150	0xbe7de614	-0.24794799
151	0x3e90826b	0.282245
152	0xbde2ca61	-0.11073757
153	0xbe86d0d1	-0.2633119
154	0x3f3be27a	0.7339245
155	0x3f14f589	0.58187157
156	0x3d4336f6	0.047659837
157	0x3eb188e4	0.34674752
158	0xbe868016	-0.26269597
159	0xbe96088b	-0.29303393
160	0xbe039548	-0.12849915
161	0x3ef75491	0.48306707
162	0x3ddd8de0	0.10818076
163	0x3f08691f	0.532854
164	0x3f0c5854	0.5482228
165	0x3e93b363	0.288478
166	0x3e9ec78d	0.3101162
167	0x3f1b83cd	0.6074799
168	0xbda6c63b	-0.08143278
169	0xbd92e475	-0.07172481
170	0x3f422835	0.758426
171	0xbd6a846d	-0.057255197
172	0xbe6b8976	-0.23001656
173	0x3eee9415	0.46597353
174	0x3e8878e8	0.26654744
175	0x3e9930f1	0.29920152
176	0xbee667cb	-0.45001063
177	0x3ecd5aa0	0.40108204
178	0xbe6dc00f	-0.23217796
179	0xbd94d687	-0.0726748
180	0xbe3ef490	-0.1864798
181	0x3dcde18a	0.10052784
182	0x3eeaf658	0.4589107
183	0x3ea0ebf5	0.3143002
184	0x3ef391b9	0.47572115
185	0x3ebfc7e7	0.374572
186	0x3ee84a95	0.45369402
187	0xbee6aaaf	-0.45052096
188	0x3e1ca02a	0.15295473
189	0x3ed8fc4b	0.42379984
190	0x3ea6064c	0.3242668
191	0x3ed896bd	0.42302504
192	0x3ec85601	0.39128116
193	0xbeadbeb0	-0.33934546
194	0x3ef10fc2	0.47082335
195	0x3ebb8a9b	0.36629185
196	0x3eef2ff1	0.46716264
197	0xbde7242f	-0.11286198
198	0x3e6d71f2	0.23187998
199	0xbe0b4b62	-0.13602975
200	0x3e2f6407	0.17128001
201	0x3e5ec557	0.21754967
202	0xbe4ad0e1	-0.19806243
203	0xbd875a67	-0.0660904
204	0xbec9ca07	-0.39411947
205	0x3e93bccf	0.28854987
206	0x3ee0f0e7	0.43933794
207	0xbe986a0a	-0.297684
208	0x3e8717f4	0.26385462
209	0xbe897031	-0.26843408
210	0x3f07253c	0.5279119
211	0x3e6a3b53	0.22874193
212	0xbde0043b	-0.10938307
213	0x3cb1055a	0.021608997
214	0x3e77838a	0.24171272
215	0xbe70c617	-0.23513065
216	0x3e8bcadd	0.2730321
217	0xbd278be7	-0.040904906
218	0xbe1a7ed3	-0.15087442
219	0xbe074d62	-0.13213113
220	0x3e8e5e11	0.27806142
221	0x3d30058e	0.042974047
222	0xbd27ab48	-0.04093483
223	0x3e57203a	0.21008387
224	0xbd9fccab	-0.07802709
225	0x3e94018f	0.2890744
226	0xbe25f66e	-0.16207287
227	0x3d80a7f0	0.062820315
228	0xbe897b79	-0.26852015
229	0xbe0d7604	-0.1381455
230	0xbed01228	-0.40638852
231	0xbdc0d01a	-0.09414692
232	0xbedd1a3b	-0.43184075
233	0xbd8e3a2a	-0.06944688
234	0x3eec6016	0.46167058
235	0x3ed04baf	0.40682742
236	0xbe081b16	-0.13291582
237	0x3e6d893a	0.23196879
238	0x3ef1b87e	0.4721107
239	0xbe4a978b	-0.19784372
240	0xbf09ec32	-0.5387603
241	0xbde7f3ff	-0.113258354
242	0x3f0df2f3	0.55448836
243	0xbedd1aea	-0.43184596
244	0x3e8c3cdb	0.2739018
245	0x3f4c8831	0.7989531
246	0xbe28ce25	-0.16484888
247	0x3f2caeb9	0.67454106
248	0x3f35b266	0.7097534
249	0xbe537d3c	-0.20653242
250	0xbe19ebf0	-0.1503141
251	0xbdd18c63	-0.10231855
252	0x3d8a150a	0.06742294
253	0xbe289e8b	-0.1646673
254	0x3e85805c	0.26074493
255	0x3ee86647	0.4539053

l1.bias f4 [8]
0	0x3f13795a	0.5760704
1	0x3ef530e2	0.47888857
2	0x3f38b6be	0.7215384
3	0x3eeeed95	0.46665636
4	0x3edd1a85	0.43184295
5	0x3ef7ae4e	0.4837517
6	0x3f01eafe	0.50749195
7	0x3f0a0923	0.5392019

l2.weight f4 [8, 8]
0	0x3f980768	1.187726
1	0xbf71662d	-0.9429653
2	0x3f6c42a0	0.9228916
3	0xbe927ccc	-0.28610837
4	0x3ef2d69b	0.47429356
5	0xbf1accbb	-0.60468644
6	0x3ef6a4fa	0.48172742
7	0xbf79348c	-0.97345805
8	0x3e3c429a	0.18384781
9	0x3f63ffda	0.89062274
10	0x3fd3ecec	1.6556678
11	0x3f35cd90	0.7101679
12	0xbf417b05	-0.7557834
13	0xbf52baa5	-0.82316047
14	0x3d1e86d5	0.038702805
15	0xbe7403db	-0.23829596
16	0x3d3e8a57	0.04651865
17	0x3cc6e4ac	0.024278961
18	0xbe09d5dc	-0.13460487
19	0x3f8cae3e	1.0990674
20	0x3f81f8a1	1.0154
21	0x3fbde684	1.4835973
22	0x3fa1f410	1.2652607
23	0x3f7ec7bd	0.99523526
24	0x3d89d643	0.0673032
25	0xbe687c78	-0.22703731
26	0xbeb3ea84	-0.3513986
27	0x3d74fdda	0.059812404
28	0x3c60274e	0.013681246
29	0x3ea6cd3c	0.32578456
30	0xbe9d74ad	-0.3075308
31	0xbe5485b3	-0.20754127
32	0x3dbf82f5	0.0935115
33	0xbe54664d	-0.2074215
34	0xbdcfb7df	-0.101424925
35	0xbdee6de6	-0.11642055
36	0x3caeb45d	0.021326238
37	0xbe4de1af	-0.20105623
38	0xbb9b4db4	-0.0047394875
39	0x3c47a334	0.012184907
40	0xbf597fa3	-0.84960383
41	0x3f7e8461	0.99420744
42	0x3f9d1255	1.227122
43	0x3f163f62	0.58690464
44	0xbee54615	-0.4478003
45	0x3d0f7d2b	0.03503148
46	0xbde701f7	-0.11279672
47	0xbf1a2e36	-0.6022676
48	0x3fbbbb36	1.4666507
49	0x3e2f5ec7	0.17125998
50	0xbe4d666e	-0.20058605
51	0x3e9db12d	0.30799237
52	0xbef15c64	-0.471408
53	0xbf98ba19	-1.1931792
54	0x3f5eacc0	0.86982346
55	0x3f34dd8c	0.70650554
56	0xbf0a56d5	-0.54038745
57	0xbdd2dcfb	-0.10296055
58	0x3f253bdd	0.6454447
59	0x3f93d8cb	1.1550535
60	0xbecdb183	-0.40174493
61	0x3fa4864f	1.2853488
62	0x3f1201d2	0.5703403
63	0x3f2931d6	0.6609167

l2.bias f4 [8]
0	0x3efe1a1f	0.49629304
1	0x3ed047d9	0.40679815
2	0xbd4d4812	-0.05011756
3	0xbea0baa2	-0.3139239
4	0xbe527b4f	-0.20554851
5	0x3e0dc8c6	0.1384612
6	0xbe0b0b33	-0.13578491
7	0xbd80b469	-0.062844105

l3.weight f4 [6, 8]
0	0x3f5fc8ff	0.8741607
1	0x3f19272c	0.59825397
2	0xbfaa0eb6	-1.328574
3	0x3dde09a4	0.108416826
4	0x3e80b1dc	0.25135696
5	0xbeef7c9e	-0.46774763
6	0x3effba5e	0.49946874
7	0xbf6fdd2f	-0.93696874
8	0xbf5614b1	-0.8362532
9	0xbf91bdd5	-1.1386057
10	0x3f7a4389	0.977593
11	0xbe63203e	-0.22180268
12	0xbd678ca0	-0.056530595
13	0xbf957b06	-1.1678169
14	0xbf852f87	-1.0405129
15	0x3f259287	0.6467671
16	0xbd4622a9	-0.0483729
17	0x3e64eee3	0.22356753
18	0xbd95da6f	-0.073170535
19	0xbdf72204	-0.12067035
20	0x3e95f712	0.29290062
21	0x3e884171	0.26612428
22	0xbeafa81b	-0.34307942
23	0x3f1c6bf3	0.6110222
24	0x3f094cd1	0.5363284
25	0xbf920ba0	-1.1409798
26	0x3ede1188	0.4337275
27	0xbce54960	-0.02798909
28	0x3e2c141f	0.1680455
29	0xbf0eacff	-0.5573272
30	0x3ebb4874	0.36578715
31	0xbf46a8cc	-0.77601314
32	0xbf6a2bee	-0.9147328
33	0x3c3e536b	0.011616568
34	0x3d708e2b	0.058729332
35	0x3e31a801	0.17349245
36	0x3e2c889f	0.16848992
37	0xbec01eb7	-0.37523434
38	0x3f3289e5	0.6974166
39	0x3e3ca051	0.18420531
40	0xbf7b44ec	-0.9815204
41	0x3f4bfc9a	0.79682314
42	0xbfa53eaf	-1.2909755
43	0xbe08ea5b	-0.1337065
44	0xbd45aa95	-0.048258383
45	0x3f6c4569	0.9229341
46	0xbf6a30c6	-0.9148067
47	0xbee353b2	-0.44399792

l3.bias f4 [6]
0	0x3eeccfaf	0.462522
1	0x3eacd9d7	0.3375995
2	0xbf3ab2e7	-0.72929233
3	0xbeaa4c0b	-0.3326114
4	0xbf0153ef	-0.505187
5	0xbb3576e4	-0.0027689273
